…
Expected output dimension of layer max_pooling1d: 23.0
Expected output dimension of layer conv1d_flipout_1: 10.0
Expected output dimension of layer max_pooling1d_1: 9.0
Expected output dimension of layer conv1d_flipout_2: 8.0
Model: "model"
_________________________________________________________________
 Layer (type)                Output Shape              Param #   
=================================================================
 input_1 (InputLayer)        [(None, 100, 4)]          0         
                                                                 
 conv1d_flipout (Conv1DFlipo  (None, 46, 8)            648       
 ut)                                                             
                                                                 
 max_pooling1d (MaxPooling1D  (None, 23, 8)            0         
 )                                                               
                                                                 
 batch_normalization (BatchN  (None, 23, 8)            32        
 ormalization)                                                   
                                                                 
 conv1d_flipout_1 (Conv1DFli  (None, 10, 16)           1296      
 pout)                                                           
                                                                 
 max_pooling1d_1 (MaxPooling  (None, 9, 16)            0         
 1D)                                                             
                                                                 
 batch_normalization_1 (Batc  (None, 9, 16)            64        
 hNormalization)                                                 
                                                                 
 conv1d_flipout_2 (Conv1DFli  (None, 8, 32)            2080      
 pout)                                                           
                                                                 
 batch_normalization_2 (Batc  (None, 8, 32)            128       
 hNormalization)                                                 
                                                                 
 global_average_pooling1d (G  (None, 32)               0         
 lobalAveragePooling1D)                                          
                                                                 
 dense_flipout (DenseFlipout  (None, 32)               2080      
 )                                                               
                                                                 
 batch_normalization_3 (Batc  (None, 32)               128       
 hNormalization)                                                 
                                                                 
 dense_flipout_1 (DenseFlipo  (None, 5)                325       
 ut)                                                             
                                                                 
=================================================================
Total params: 6,781
Trainable params: 6,605
Non-trainable params: 176
_________________________________________________________________
None
Loss before loading weights/ 1.6199311

Loading ckpt from models/5-label20/tf_ckpts/
…
Last learning rate was <keras.optimizer_v2.learning_rate_schedule.ExponentialDecay object at 0x7fa8b44eef70>
Learning rate set to 0.01
Loss after loading weights/ 0.21113859

Model: "model_1"
_________________________________________________________________
 Layer (type)                Output Shape              Param #   
=================================================================
 input_2 (InputLayer)        [(None, 100, 4)]          0         
                                                                 
 input_1 (InputLayer)        multiple                  0         
                                                                 
 conv1d_flipout (Conv1DFlipo  (None, 46, 8)            648       
 ut)                                                             
                                                                 
 max_pooling1d (MaxPooling1D  (None, 23, 8)            0         
 )                                                               
                                                                 
 batch_normalization (BatchN  (None, 23, 8)            32        
 ormalization)                                                   
                                                                 
 conv1d_flipout_1 (Conv1DFli  (None, 10, 16)           1296      
 pout)                                                           
                                                                 
 max_pooling1d_1 (MaxPooling  (None, 9, 16)            0         
 1D)                                                             
                                                                 
 batch_normalization_1 (Batc  (None, 9, 16)            64        
 hNormalization)                                                 
                                                                 
 conv1d_flipout_2 (Conv1DFli  (None, 8, 32)            2080      
 pout)                                                           
                                                                 
 batch_normalization_2 (Batc  (None, 8, 32)            128       
 hNormalization)                                                 
                                                                 
 global_average_pooling1d (G  (None, 32)               0         
 lobalAveragePooling1D)                                          
                                                                 
 dense_flipout (DenseFlipout  (None, 32)               2080      
 )                                                               
                                                                 
 batch_normalization_3 (Batc  (None, 32)               128       
 hNormalization)                                                 
                                                                 
 dense_flipout_2 (DenseFlipo  (None, 2)                130       
 ut)                                                             
                                                                 
=================================================================
Total params: 6,586
Trainable params: 6,410
Non-trainable params: 176
_________________________________________________________________
None
GPU device not found ! Device: 
------------ TRAINING ------------
…
