…
Expected output dimension of layer conv1d_flipout_2: 8.0
Model: "model"
_________________________________________________________________
 Layer (type)                Output Shape              Param #   
=================================================================
 input_1 (InputLayer)        [(None, 100, 4)]          0         
                                                                 
2024-12-05 17:55:33.417992: W tensorflow/python/util/util.cc:368] Sets are not currently considered sequences, but this may change in the future, so consider avoiding using them.
 conv1d_flipout (Conv1DFlipo  (None, 46, 8)            648       
 ut)                                                             
                                                                 
 max_pooling1d (MaxPooling1D  (None, 23, 8)            0         
 )                                                               
                                                                 
 batch_normalization (BatchN  (None, 23, 8)            32        
 ormalization)                                                   
                                                                 
 conv1d_flipout_1 (Conv1DFli  (None, 10, 16)           1296      
 pout)                                                           
                                                                 
 max_pooling1d_1 (MaxPooling  (None, 9, 16)            0         
 1D)                                                             
                                                                 
 batch_normalization_1 (Batc  (None, 9, 16)            64        
 hNormalization)                                                 
                                                                 
 conv1d_flipout_2 (Conv1DFli  (None, 8, 32)            2080      
 pout)                                                           
                                                                 
 batch_normalization_2 (Batc  (None, 8, 32)            128       
 hNormalization)                                                 
                                                                 
 global_average_pooling1d (G  (None, 32)               0         
 lobalAveragePooling1D)                                          
                                                                 
 dense_flipout (DenseFlipout  (None, 32)               2080      
 )                                                               
                                                                 
 batch_normalization_3 (Batc  (None, 32)               128       
 hNormalization)                                                 
                                                                 
 dense_flipout_1 (DenseFlipo  (None, 5)                325       
 ut)                                                             
                                                                 
=================================================================
Total params: 6,781
Trainable params: 6,605
Non-trainable params: 176
_________________________________________________________________
None
Computing loss for randomly initialized model...
Loss before loading weights/ 1.6777896
…
